D:\Anaconda3\envs\tensorflow_gpu\python.exe D:/PythonProject/ECG/lijiahao_cpsc_12lead/train_lijiahao.py
Using TensorFlow backend.
Time for data processing--- 1.629093885421753 seconds---
__________________________________________________________________________________________________
Layer (type)                    Output Shape         Param #     Connected to
==================================================================================================
input_1 (InputLayer)            (None, 1800, 12)     0
__________________________________________________________________________________________________
conv1d_1 (Conv1D)               (None, 1800, 12)     4620        input_1[0][0]
__________________________________________________________________________________________________
batch_normalization_1 (BatchNor (None, 1800, 12)     48          conv1d_1[0][0]
__________________________________________________________________________________________________
activation_1 (Activation)       (None, 1800, 12)     0           batch_normalization_1[0][0]
__________________________________________________________________________________________________
conv1d_2 (Conv1D)               (None, 1800, 12)     4620        activation_1[0][0]
__________________________________________________________________________________________________
batch_normalization_2 (BatchNor (None, 1800, 12)     48          conv1d_2[0][0]
__________________________________________________________________________________________________
activation_2 (Activation)       (None, 1800, 12)     0           batch_normalization_2[0][0]
__________________________________________________________________________________________________
dropout_1 (Dropout)             (None, 1800, 12)     0           activation_2[0][0]
__________________________________________________________________________________________________
max_pooling1d_1 (MaxPooling1D)  (None, 1800, 12)     0           activation_1[0][0]
__________________________________________________________________________________________________
conv1d_3 (Conv1D)               (None, 1800, 12)     4620        dropout_1[0][0]
__________________________________________________________________________________________________
add_1 (Add)                     (None, 1800, 12)     0           max_pooling1d_1[0][0]
                                                                 conv1d_3[0][0]
__________________________________________________________________________________________________
batch_normalization_3 (BatchNor (None, 1800, 12)     48          add_1[0][0]
__________________________________________________________________________________________________
activation_3 (Activation)       (None, 1800, 12)     0           batch_normalization_3[0][0]
__________________________________________________________________________________________________
conv1d_4 (Conv1D)               (None, 900, 12)      4620        activation_3[0][0]
__________________________________________________________________________________________________
batch_normalization_4 (BatchNor (None, 900, 12)      48          conv1d_4[0][0]
__________________________________________________________________________________________________
activation_4 (Activation)       (None, 900, 12)      0           batch_normalization_4[0][0]
__________________________________________________________________________________________________
dropout_2 (Dropout)             (None, 900, 12)      0           activation_4[0][0]
__________________________________________________________________________________________________
max_pooling1d_2 (MaxPooling1D)  (None, 900, 12)      0           add_1[0][0]
__________________________________________________________________________________________________
conv1d_5 (Conv1D)               (None, 900, 12)      4620        dropout_2[0][0]
__________________________________________________________________________________________________
add_2 (Add)                     (None, 900, 12)      0           max_pooling1d_2[0][0]
                                                                 conv1d_5[0][0]
__________________________________________________________________________________________________
batch_normalization_5 (BatchNor (None, 900, 12)      48          add_2[0][0]
__________________________________________________________________________________________________
activation_5 (Activation)       (None, 900, 12)      0           batch_normalization_5[0][0]
__________________________________________________________________________________________________
conv1d_6 (Conv1D)               (None, 900, 24)      9240        activation_5[0][0]
__________________________________________________________________________________________________
batch_normalization_6 (BatchNor (None, 900, 24)      96          conv1d_6[0][0]
__________________________________________________________________________________________________
activation_6 (Activation)       (None, 900, 24)      0           batch_normalization_6[0][0]
__________________________________________________________________________________________________
max_pooling1d_3 (MaxPooling1D)  (None, 900, 12)      0           add_2[0][0]
__________________________________________________________________________________________________
dropout_3 (Dropout)             (None, 900, 24)      0           activation_6[0][0]
__________________________________________________________________________________________________
lambda_1 (Lambda)               (None, 900, 24)      0           max_pooling1d_3[0][0]
__________________________________________________________________________________________________
conv1d_7 (Conv1D)               (None, 900, 24)      18456       dropout_3[0][0]
__________________________________________________________________________________________________
add_3 (Add)                     (None, 900, 24)      0           lambda_1[0][0]
                                                                 conv1d_7[0][0]
__________________________________________________________________________________________________
batch_normalization_7 (BatchNor (None, 900, 24)      96          add_3[0][0]
__________________________________________________________________________________________________
activation_7 (Activation)       (None, 900, 24)      0           batch_normalization_7[0][0]
__________________________________________________________________________________________________
conv1d_8 (Conv1D)               (None, 450, 24)      18456       activation_7[0][0]
__________________________________________________________________________________________________
batch_normalization_8 (BatchNor (None, 450, 24)      96          conv1d_8[0][0]
__________________________________________________________________________________________________
activation_8 (Activation)       (None, 450, 24)      0           batch_normalization_8[0][0]
__________________________________________________________________________________________________
dropout_4 (Dropout)             (None, 450, 24)      0           activation_8[0][0]
__________________________________________________________________________________________________
max_pooling1d_4 (MaxPooling1D)  (None, 450, 24)      0           add_3[0][0]
__________________________________________________________________________________________________
conv1d_9 (Conv1D)               (None, 450, 24)      18456       dropout_4[0][0]
__________________________________________________________________________________________________
add_4 (Add)                     (None, 450, 24)      0           max_pooling1d_4[0][0]
                                                                 conv1d_9[0][0]
__________________________________________________________________________________________________
batch_normalization_9 (BatchNor (None, 450, 24)      96          add_4[0][0]
__________________________________________________________________________________________________
activation_9 (Activation)       (None, 450, 24)      0           batch_normalization_9[0][0]
__________________________________________________________________________________________________
conv1d_10 (Conv1D)              (None, 450, 48)      36912       activation_9[0][0]
__________________________________________________________________________________________________
batch_normalization_10 (BatchNo (None, 450, 48)      192         conv1d_10[0][0]
__________________________________________________________________________________________________
activation_10 (Activation)      (None, 450, 48)      0           batch_normalization_10[0][0]
__________________________________________________________________________________________________
max_pooling1d_5 (MaxPooling1D)  (None, 450, 24)      0           add_4[0][0]
__________________________________________________________________________________________________
dropout_5 (Dropout)             (None, 450, 48)      0           activation_10[0][0]
__________________________________________________________________________________________________
lambda_2 (Lambda)               (None, 450, 48)      0           max_pooling1d_5[0][0]
__________________________________________________________________________________________________
conv1d_11 (Conv1D)              (None, 450, 48)      73776       dropout_5[0][0]
__________________________________________________________________________________________________
add_5 (Add)                     (None, 450, 48)      0           lambda_2[0][0]
                                                                 conv1d_11[0][0]
__________________________________________________________________________________________________
batch_normalization_11 (BatchNo (None, 450, 48)      192         add_5[0][0]
__________________________________________________________________________________________________
activation_11 (Activation)      (None, 450, 48)      0           batch_normalization_11[0][0]
__________________________________________________________________________________________________
conv1d_12 (Conv1D)              (None, 225, 48)      73776       activation_11[0][0]
__________________________________________________________________________________________________
batch_normalization_12 (BatchNo (None, 225, 48)      192         conv1d_12[0][0]
__________________________________________________________________________________________________
activation_12 (Activation)      (None, 225, 48)      0           batch_normalization_12[0][0]
__________________________________________________________________________________________________
dropout_6 (Dropout)             (None, 225, 48)      0           activation_12[0][0]
__________________________________________________________________________________________________
max_pooling1d_6 (MaxPooling1D)  (None, 225, 48)      0           add_5[0][0]
__________________________________________________________________________________________________
conv1d_13 (Conv1D)              (None, 225, 48)      73776       dropout_6[0][0]
__________________________________________________________________________________________________
add_6 (Add)                     (None, 225, 48)      0           max_pooling1d_6[0][0]
                                                                 conv1d_13[0][0]
__________________________________________________________________________________________________
batch_normalization_13 (BatchNo (None, 225, 48)      192         add_6[0][0]
__________________________________________________________________________________________________
activation_13 (Activation)      (None, 225, 48)      0           batch_normalization_13[0][0]
__________________________________________________________________________________________________
conv1d_14 (Conv1D)              (None, 225, 96)      147552      activation_13[0][0]
__________________________________________________________________________________________________
batch_normalization_14 (BatchNo (None, 225, 96)      384         conv1d_14[0][0]
__________________________________________________________________________________________________
activation_14 (Activation)      (None, 225, 96)      0           batch_normalization_14[0][0]
__________________________________________________________________________________________________
max_pooling1d_7 (MaxPooling1D)  (None, 225, 48)      0           add_6[0][0]
__________________________________________________________________________________________________
dropout_7 (Dropout)             (None, 225, 96)      0           activation_14[0][0]
__________________________________________________________________________________________________
lambda_3 (Lambda)               (None, 225, 96)      0           max_pooling1d_7[0][0]
__________________________________________________________________________________________________
conv1d_15 (Conv1D)              (None, 225, 96)      295008      dropout_7[0][0]
__________________________________________________________________________________________________
add_7 (Add)                     (None, 225, 96)      0           lambda_3[0][0]
                                                                 conv1d_15[0][0]
__________________________________________________________________________________________________
batch_normalization_15 (BatchNo (None, 225, 96)      384         add_7[0][0]
__________________________________________________________________________________________________
activation_15 (Activation)      (None, 225, 96)      0           batch_normalization_15[0][0]
__________________________________________________________________________________________________
conv1d_16 (Conv1D)              (None, 113, 96)      295008      activation_15[0][0]
__________________________________________________________________________________________________
batch_normalization_16 (BatchNo (None, 113, 96)      384         conv1d_16[0][0]
__________________________________________________________________________________________________
activation_16 (Activation)      (None, 113, 96)      0           batch_normalization_16[0][0]
__________________________________________________________________________________________________
dropout_8 (Dropout)             (None, 113, 96)      0           activation_16[0][0]
__________________________________________________________________________________________________
conv1d_17 (Conv1D)              (None, 113, 96)      295008      dropout_8[0][0]
__________________________________________________________________________________________________
batch_normalization_17 (BatchNo (None, 113, 96)      384         conv1d_17[0][0]
__________________________________________________________________________________________________
activation_17 (Activation)      (None, 113, 96)      0           batch_normalization_17[0][0]
__________________________________________________________________________________________________
global_average_pooling1d_1 (Glo (None, 96)           0           activation_17[0][0]
__________________________________________________________________________________________________
dense_1 (Dense)                 (None, 9)            873         global_average_pooling1d_1[0][0]
__________________________________________________________________________________________________
activation_18 (Activation)      (None, 9)            0           dense_1[0][0]
==================================================================================================
Total params: 1,382,325
Trainable params: 1,380,861
Non-trainable params: 1,464
__________________________________________________________________________________________________
None
Learning rate:  0.1
Train on 5501 samples, validate on 1376 samples
Epoch 1/50
2021-02-05 23:23:42.115956: I C:\users\nwani\_bazel_nwani\ujdkfsks\execroot\org_tensorflow\tensorflow\core\platform\cpu_feature_guard.cc:141] Your CPU supports instructions that this TensorFlow binary was not compiled to use: AVX AVX2
…
